nohup: ignoring input
Constructing DeepLabv3+ model...
Backbone: Xception
Number of classes: 1
Output stride: 16
Number of Input Channels: 3
DeepLabv3_plus(
  (xception_features): Xception(
    (conv1): Conv2d(3, 32, kernel_size=(3, 3), stride=(2, 2), padding=(1, 1), bias=False)
    (bn1): SynchronizedBatchNorm2d(32, eps=1e-05, momentum=0.1, affine=True, track_running_stats=True)
    (relu): ReLU(inplace=True)
    (conv2): Conv2d(32, 64, kernel_size=(3, 3), stride=(1, 1), padding=(1, 1), bias=False)
    (bn2): SynchronizedBatchNorm2d(64, eps=1e-05, momentum=0.1, affine=True, track_running_stats=True)
    (block1): Block(
      (skip): Conv2d(64, 128, kernel_size=(1, 1), stride=(2, 2), bias=False)
      (skipbn): SynchronizedBatchNorm2d(128, eps=1e-05, momentum=0.1, affine=True, track_running_stats=True)
      (relu): ReLU(inplace=True)
      (rep): Sequential(
        (0): SeparableConv2d_same(
          (conv1): Conv2d(64, 64, kernel_size=(3, 3), stride=(1, 1), groups=64, bias=False)
          (pointwise): Conv2d(64, 128, kernel_size=(1, 1), stride=(1, 1), bias=False)
        )
        (1): SynchronizedBatchNorm2d(128, eps=1e-05, momentum=0.1, affine=True, track_running_stats=True)
        (2): ReLU(inplace=True)
        (3): SeparableConv2d_same(
          (conv1): Conv2d(128, 128, kernel_size=(3, 3), stride=(1, 1), groups=128, bias=False)
          (pointwise): Conv2d(128, 128, kernel_size=(1, 1), stride=(1, 1), bias=False)
        )
        (4): SynchronizedBatchNorm2d(128, eps=1e-05, momentum=0.1, affine=True, track_running_stats=True)
        (5): SeparableConv2d_same(
          (conv1): Conv2d(128, 128, kernel_size=(3, 3), stride=(2, 2), groups=128, bias=False)
          (pointwise): Conv2d(128, 128, kernel_size=(1, 1), stride=(1, 1), bias=False)
        )
      )
    )
    (block2): Block(
      (skip): Conv2d(128, 256, kernel_size=(1, 1), stride=(2, 2), bias=False)
      (skipbn): SynchronizedBatchNorm2d(256, eps=1e-05, momentum=0.1, affine=True, track_running_stats=True)
      (relu): ReLU(inplace=True)
      (rep): Sequential(
        (0): ReLU(inplace=True)
        (1): SeparableConv2d_same(
          (conv1): Conv2d(128, 128, kernel_size=(3, 3), stride=(1, 1), groups=128, bias=False)
          (pointwise): Conv2d(128, 256, kernel_size=(1, 1), stride=(1, 1), bias=False)
        )
        (2): SynchronizedBatchNorm2d(256, eps=1e-05, momentum=0.1, affine=True, track_running_stats=True)
        (3): ReLU(inplace=True)
        (4): SeparableConv2d_same(
          (conv1): Conv2d(256, 256, kernel_size=(3, 3), stride=(1, 1), groups=256, bias=False)
          (pointwise): Conv2d(256, 256, kernel_size=(1, 1), stride=(1, 1), bias=False)
        )
        (5): SynchronizedBatchNorm2d(256, eps=1e-05, momentum=0.1, affine=True, track_running_stats=True)
        (6): SeparableConv2d_same(
          (conv1): Conv2d(256, 256, kernel_size=(3, 3), stride=(2, 2), groups=256, bias=False)
          (pointwise): Conv2d(256, 256, kernel_size=(1, 1), stride=(1, 1), bias=False)
        )
      )
    )
    (block3): Block(
      (skip): Conv2d(256, 728, kernel_size=(1, 1), stride=(2, 2), bias=False)
      (skipbn): SynchronizedBatchNorm2d(728, eps=1e-05, momentum=0.1, affine=True, track_running_stats=True)
      (relu): ReLU(inplace=True)
      (rep): Sequential(
        (0): ReLU(inplace=True)
        (1): SeparableConv2d_same(
          (conv1): Conv2d(256, 256, kernel_size=(3, 3), stride=(1, 1), groups=256, bias=False)
          (pointwise): Conv2d(256, 728, kernel_size=(1, 1), stride=(1, 1), bias=False)
        )
        (2): SynchronizedBatchNorm2d(728, eps=1e-05, momentum=0.1, affine=True, track_running_stats=True)
        (3): ReLU(inplace=True)
        (4): SeparableConv2d_same(
          (conv1): Conv2d(728, 728, kernel_size=(3, 3), stride=(1, 1), groups=728, bias=False)
          (pointwise): Conv2d(728, 728, kernel_size=(1, 1), stride=(1, 1), bias=False)
        )
        (5): SynchronizedBatchNorm2d(728, eps=1e-05, momentum=0.1, affine=True, track_running_stats=True)
        (6): SeparableConv2d_same(
          (conv1): Conv2d(728, 728, kernel_size=(3, 3), stride=(2, 2), groups=728, bias=False)
          (pointwise): Conv2d(728, 728, kernel_size=(1, 1), stride=(1, 1), bias=False)
        )
      )
    )
    (block4): Block(
      (relu): ReLU(inplace=True)
      (rep): Sequential(
        (0): ReLU(inplace=True)
        (1): SeparableConv2d_same(
          (conv1): Conv2d(728, 728, kernel_size=(3, 3), stride=(1, 1), groups=728, bias=False)
          (pointwise): Conv2d(728, 728, kernel_size=(1, 1), stride=(1, 1), bias=False)
        )
        (2): SynchronizedBatchNorm2d(728, eps=1e-05, momentum=0.1, affine=True, track_running_stats=True)
        (3): ReLU(inplace=True)
        (4): SeparableConv2d_same(
          (conv1): Conv2d(728, 728, kernel_size=(3, 3), stride=(1, 1), groups=728, bias=False)
          (pointwise): Conv2d(728, 728, kernel_size=(1, 1), stride=(1, 1), bias=False)
        )
        (5): SynchronizedBatchNorm2d(728, eps=1e-05, momentum=0.1, affine=True, track_running_stats=True)
        (6): ReLU(inplace=True)
        (7): SeparableConv2d_same(
          (conv1): Conv2d(728, 728, kernel_size=(3, 3), stride=(1, 1), groups=728, bias=False)
          (pointwise): Conv2d(728, 728, kernel_size=(1, 1), stride=(1, 1), bias=False)
        )
        (8): SynchronizedBatchNorm2d(728, eps=1e-05, momentum=0.1, affine=True, track_running_stats=True)
      )
    )
    (block5): Block(
      (relu): ReLU(inplace=True)
      (rep): Sequential(
        (0): ReLU(inplace=True)
        (1): SeparableConv2d_same(
          (conv1): Conv2d(728, 728, kernel_size=(3, 3), stride=(1, 1), groups=728, bias=False)
          (pointwise): Conv2d(728, 728, kernel_size=(1, 1), stride=(1, 1), bias=False)
        )
        (2): SynchronizedBatchNorm2d(728, eps=1e-05, momentum=0.1, affine=True, track_running_stats=True)
        (3): ReLU(inplace=True)
        (4): SeparableConv2d_same(
          (conv1): Conv2d(728, 728, kernel_size=(3, 3), stride=(1, 1), groups=728, bias=False)
          (pointwise): Conv2d(728, 728, kernel_size=(1, 1), stride=(1, 1), bias=False)
        )
        (5): SynchronizedBatchNorm2d(728, eps=1e-05, momentum=0.1, affine=True, track_running_stats=True)
        (6): ReLU(inplace=True)
        (7): SeparableConv2d_same(
          (conv1): Conv2d(728, 728, kernel_size=(3, 3), stride=(1, 1), groups=728, bias=False)
          (pointwise): Conv2d(728, 728, kernel_size=(1, 1), stride=(1, 1), bias=False)
        )
        (8): SynchronizedBatchNorm2d(728, eps=1e-05, momentum=0.1, affine=True, track_running_stats=True)
      )
    )
    (block6): Block(
      (relu): ReLU(inplace=True)
      (rep): Sequential(
        (0): ReLU(inplace=True)
        (1): SeparableConv2d_same(
          (conv1): Conv2d(728, 728, kernel_size=(3, 3), stride=(1, 1), groups=728, bias=False)
          (pointwise): Conv2d(728, 728, kernel_size=(1, 1), stride=(1, 1), bias=False)
        )
        (2): SynchronizedBatchNorm2d(728, eps=1e-05, momentum=0.1, affine=True, track_running_stats=True)
        (3): ReLU(inplace=True)
        (4): SeparableConv2d_same(
          (conv1): Conv2d(728, 728, kernel_size=(3, 3), stride=(1, 1), groups=728, bias=False)
          (pointwise): Conv2d(728, 728, kernel_size=(1, 1), stride=(1, 1), bias=False)
        )
        (5): SynchronizedBatchNorm2d(728, eps=1e-05, momentum=0.1, affine=True, track_running_stats=True)
        (6): ReLU(inplace=True)
        (7): SeparableConv2d_same(
          (conv1): Conv2d(728, 728, kernel_size=(3, 3), stride=(1, 1), groups=728, bias=False)
          (pointwise): Conv2d(728, 728, kernel_size=(1, 1), stride=(1, 1), bias=False)
        )
        (8): SynchronizedBatchNorm2d(728, eps=1e-05, momentum=0.1, affine=True, track_running_stats=True)
      )
    )
    (block7): Block(
      (relu): ReLU(inplace=True)
      (rep): Sequential(
        (0): ReLU(inplace=True)
        (1): SeparableConv2d_same(
          (conv1): Conv2d(728, 728, kernel_size=(3, 3), stride=(1, 1), groups=728, bias=False)
          (pointwise): Conv2d(728, 728, kernel_size=(1, 1), stride=(1, 1), bias=False)
        )
        (2): SynchronizedBatchNorm2d(728, eps=1e-05, momentum=0.1, affine=True, track_running_stats=True)
        (3): ReLU(inplace=True)
        (4): SeparableConv2d_same(
          (conv1): Conv2d(728, 728, kernel_size=(3, 3), stride=(1, 1), groups=728, bias=False)
          (pointwise): Conv2d(728, 728, kernel_size=(1, 1), stride=(1, 1), bias=False)
        )
        (5): SynchronizedBatchNorm2d(728, eps=1e-05, momentum=0.1, affine=True, track_running_stats=True)
        (6): ReLU(inplace=True)
        (7): SeparableConv2d_same(
          (conv1): Conv2d(728, 728, kernel_size=(3, 3), stride=(1, 1), groups=728, bias=False)
          (pointwise): Conv2d(728, 728, kernel_size=(1, 1), stride=(1, 1), bias=False)
        )
        (8): SynchronizedBatchNorm2d(728, eps=1e-05, momentum=0.1, affine=True, track_running_stats=True)
      )
    )
    (block8): Block(
      (relu): ReLU(inplace=True)
      (rep): Sequential(
        (0): ReLU(inplace=True)
        (1): SeparableConv2d_same(
          (conv1): Conv2d(728, 728, kernel_size=(3, 3), stride=(1, 1), groups=728, bias=False)
          (pointwise): Conv2d(728, 728, kernel_size=(1, 1), stride=(1, 1), bias=False)
        )
        (2): SynchronizedBatchNorm2d(728, eps=1e-05, momentum=0.1, affine=True, track_running_stats=True)
        (3): ReLU(inplace=True)
        (4): SeparableConv2d_same(
          (conv1): Conv2d(728, 728, kernel_size=(3, 3), stride=(1, 1), groups=728, bias=False)
          (pointwise): Conv2d(728, 728, kernel_size=(1, 1), stride=(1, 1), bias=False)
        )
        (5): SynchronizedBatchNorm2d(728, eps=1e-05, momentum=0.1, affine=True, track_running_stats=True)
        (6): ReLU(inplace=True)
        (7): SeparableConv2d_same(
          (conv1): Conv2d(728, 728, kernel_size=(3, 3), stride=(1, 1), groups=728, bias=False)
          (pointwise): Conv2d(728, 728, kernel_size=(1, 1), stride=(1, 1), bias=False)
        )
        (8): SynchronizedBatchNorm2d(728, eps=1e-05, momentum=0.1, affine=True, track_running_stats=True)
      )
    )
    (block9): Block(
      (relu): ReLU(inplace=True)
      (rep): Sequential(
        (0): ReLU(inplace=True)
        (1): SeparableConv2d_same(
          (conv1): Conv2d(728, 728, kernel_size=(3, 3), stride=(1, 1), groups=728, bias=False)
          (pointwise): Conv2d(728, 728, kernel_size=(1, 1), stride=(1, 1), bias=False)
        )
        (2): SynchronizedBatchNorm2d(728, eps=1e-05, momentum=0.1, affine=True, track_running_stats=True)
        (3): ReLU(inplace=True)
        (4): SeparableConv2d_same(
          (conv1): Conv2d(728, 728, kernel_size=(3, 3), stride=(1, 1), groups=728, bias=False)
          (pointwise): Conv2d(728, 728, kernel_size=(1, 1), stride=(1, 1), bias=False)
        )
        (5): SynchronizedBatchNorm2d(728, eps=1e-05, momentum=0.1, affine=True, track_running_stats=True)
        (6): ReLU(inplace=True)
        (7): SeparableConv2d_same(
          (conv1): Conv2d(728, 728, kernel_size=(3, 3), stride=(1, 1), groups=728, bias=False)
          (pointwise): Conv2d(728, 728, kernel_size=(1, 1), stride=(1, 1), bias=False)
        )
        (8): SynchronizedBatchNorm2d(728, eps=1e-05, momentum=0.1, affine=True, track_running_stats=True)
      )
    )
    (block10): Block(
      (relu): ReLU(inplace=True)
      (rep): Sequential(
        (0): ReLU(inplace=True)
        (1): SeparableConv2d_same(
          (conv1): Conv2d(728, 728, kernel_size=(3, 3), stride=(1, 1), groups=728, bias=False)
          (pointwise): Conv2d(728, 728, kernel_size=(1, 1), stride=(1, 1), bias=False)
        )
        (2): SynchronizedBatchNorm2d(728, eps=1e-05, momentum=0.1, affine=True, track_running_stats=True)
        (3): ReLU(inplace=True)
        (4): SeparableConv2d_same(
          (conv1): Conv2d(728, 728, kernel_size=(3, 3), stride=(1, 1), groups=728, bias=False)
          (pointwise): Conv2d(728, 728, kernel_size=(1, 1), stride=(1, 1), bias=False)
        )
        (5): SynchronizedBatchNorm2d(728, eps=1e-05, momentum=0.1, affine=True, track_running_stats=True)
        (6): ReLU(inplace=True)
        (7): SeparableConv2d_same(
          (conv1): Conv2d(728, 728, kernel_size=(3, 3), stride=(1, 1), groups=728, bias=False)
          (pointwise): Conv2d(728, 728, kernel_size=(1, 1), stride=(1, 1), bias=False)
        )
        (8): SynchronizedBatchNorm2d(728, eps=1e-05, momentum=0.1, affine=True, track_running_stats=True)
      )
    )
    (block11): Block(
      (relu): ReLU(inplace=True)
      (rep): Sequential(
        (0): ReLU(inplace=True)
        (1): SeparableConv2d_same(
          (conv1): Conv2d(728, 728, kernel_size=(3, 3), stride=(1, 1), groups=728, bias=False)
          (pointwise): Conv2d(728, 728, kernel_size=(1, 1), stride=(1, 1), bias=False)
        )
        (2): SynchronizedBatchNorm2d(728, eps=1e-05, momentum=0.1, affine=True, track_running_stats=True)
        (3): ReLU(inplace=True)
        (4): SeparableConv2d_same(
          (conv1): Conv2d(728, 728, kernel_size=(3, 3), stride=(1, 1), groups=728, bias=False)
          (pointwise): Conv2d(728, 728, kernel_size=(1, 1), stride=(1, 1), bias=False)
        )
        (5): SynchronizedBatchNorm2d(728, eps=1e-05, momentum=0.1, affine=True, track_running_stats=True)
        (6): ReLU(inplace=True)
        (7): SeparableConv2d_same(
          (conv1): Conv2d(728, 728, kernel_size=(3, 3), stride=(1, 1), groups=728, bias=False)
          (pointwise): Conv2d(728, 728, kernel_size=(1, 1), stride=(1, 1), bias=False)
        )
        (8): SynchronizedBatchNorm2d(728, eps=1e-05, momentum=0.1, affine=True, track_running_stats=True)
      )
    )
    (block12): Block(
      (relu): ReLU(inplace=True)
      (rep): Sequential(
        (0): ReLU(inplace=True)
        (1): SeparableConv2d_same(
          (conv1): Conv2d(728, 728, kernel_size=(3, 3), stride=(1, 1), groups=728, bias=False)
          (pointwise): Conv2d(728, 728, kernel_size=(1, 1), stride=(1, 1), bias=False)
        )
        (2): SynchronizedBatchNorm2d(728, eps=1e-05, momentum=0.1, affine=True, track_running_stats=True)
        (3): ReLU(inplace=True)
        (4): SeparableConv2d_same(
          (conv1): Conv2d(728, 728, kernel_size=(3, 3), stride=(1, 1), groups=728, bias=False)
          (pointwise): Conv2d(728, 728, kernel_size=(1, 1), stride=(1, 1), bias=False)
        )
        (5): SynchronizedBatchNorm2d(728, eps=1e-05, momentum=0.1, affine=True, track_running_stats=True)
        (6): ReLU(inplace=True)
        (7): SeparableConv2d_same(
          (conv1): Conv2d(728, 728, kernel_size=(3, 3), stride=(1, 1), groups=728, bias=False)
          (pointwise): Conv2d(728, 728, kernel_size=(1, 1), stride=(1, 1), bias=False)
        )
        (8): SynchronizedBatchNorm2d(728, eps=1e-05, momentum=0.1, affine=True, track_running_stats=True)
      )
    )
    (block13): Block(
      (relu): ReLU(inplace=True)
      (rep): Sequential(
        (0): ReLU(inplace=True)
        (1): SeparableConv2d_same(
          (conv1): Conv2d(728, 728, kernel_size=(3, 3), stride=(1, 1), groups=728, bias=False)
          (pointwise): Conv2d(728, 728, kernel_size=(1, 1), stride=(1, 1), bias=False)
        )
        (2): SynchronizedBatchNorm2d(728, eps=1e-05, momentum=0.1, affine=True, track_running_stats=True)
        (3): ReLU(inplace=True)
        (4): SeparableConv2d_same(
          (conv1): Conv2d(728, 728, kernel_size=(3, 3), stride=(1, 1), groups=728, bias=False)
          (pointwise): Conv2d(728, 728, kernel_size=(1, 1), stride=(1, 1), bias=False)
        )
        (5): SynchronizedBatchNorm2d(728, eps=1e-05, momentum=0.1, affine=True, track_running_stats=True)
        (6): ReLU(inplace=True)
        (7): SeparableConv2d_same(
          (conv1): Conv2d(728, 728, kernel_size=(3, 3), stride=(1, 1), groups=728, bias=False)
          (pointwise): Conv2d(728, 728, kernel_size=(1, 1), stride=(1, 1), bias=False)
        )
        (8): SynchronizedBatchNorm2d(728, eps=1e-05, momentum=0.1, affine=True, track_running_stats=True)
      )
    )
    (block14): Block(
      (relu): ReLU(inplace=True)
      (rep): Sequential(
        (0): ReLU(inplace=True)
        (1): SeparableConv2d_same(
          (conv1): Conv2d(728, 728, kernel_size=(3, 3), stride=(1, 1), groups=728, bias=False)
          (pointwise): Conv2d(728, 728, kernel_size=(1, 1), stride=(1, 1), bias=False)
        )
        (2): SynchronizedBatchNorm2d(728, eps=1e-05, momentum=0.1, affine=True, track_running_stats=True)
        (3): ReLU(inplace=True)
        (4): SeparableConv2d_same(
          (conv1): Conv2d(728, 728, kernel_size=(3, 3), stride=(1, 1), groups=728, bias=False)
          (pointwise): Conv2d(728, 728, kernel_size=(1, 1), stride=(1, 1), bias=False)
        )
        (5): SynchronizedBatchNorm2d(728, eps=1e-05, momentum=0.1, affine=True, track_running_stats=True)
        (6): ReLU(inplace=True)
        (7): SeparableConv2d_same(
          (conv1): Conv2d(728, 728, kernel_size=(3, 3), stride=(1, 1), groups=728, bias=False)
          (pointwise): Conv2d(728, 728, kernel_size=(1, 1), stride=(1, 1), bias=False)
        )
        (8): SynchronizedBatchNorm2d(728, eps=1e-05, momentum=0.1, affine=True, track_running_stats=True)
      )
    )
    (block15): Block(
      (relu): ReLU(inplace=True)
      (rep): Sequential(
        (0): ReLU(inplace=True)
        (1): SeparableConv2d_same(
          (conv1): Conv2d(728, 728, kernel_size=(3, 3), stride=(1, 1), groups=728, bias=False)
          (pointwise): Conv2d(728, 728, kernel_size=(1, 1), stride=(1, 1), bias=False)
        )
        (2): SynchronizedBatchNorm2d(728, eps=1e-05, momentum=0.1, affine=True, track_running_stats=True)
        (3): ReLU(inplace=True)
        (4): SeparableConv2d_same(
          (conv1): Conv2d(728, 728, kernel_size=(3, 3), stride=(1, 1), groups=728, bias=False)
          (pointwise): Conv2d(728, 728, kernel_size=(1, 1), stride=(1, 1), bias=False)
        )
        (5): SynchronizedBatchNorm2d(728, eps=1e-05, momentum=0.1, affine=True, track_running_stats=True)
        (6): ReLU(inplace=True)
        (7): SeparableConv2d_same(
          (conv1): Conv2d(728, 728, kernel_size=(3, 3), stride=(1, 1), groups=728, bias=False)
          (pointwise): Conv2d(728, 728, kernel_size=(1, 1), stride=(1, 1), bias=False)
        )
        (8): SynchronizedBatchNorm2d(728, eps=1e-05, momentum=0.1, affine=True, track_running_stats=True)
      )
    )
    (block16): Block(
      (relu): ReLU(inplace=True)
      (rep): Sequential(
        (0): ReLU(inplace=True)
        (1): SeparableConv2d_same(
          (conv1): Conv2d(728, 728, kernel_size=(3, 3), stride=(1, 1), groups=728, bias=False)
          (pointwise): Conv2d(728, 728, kernel_size=(1, 1), stride=(1, 1), bias=False)
        )
        (2): SynchronizedBatchNorm2d(728, eps=1e-05, momentum=0.1, affine=True, track_running_stats=True)
        (3): ReLU(inplace=True)
        (4): SeparableConv2d_same(
          (conv1): Conv2d(728, 728, kernel_size=(3, 3), stride=(1, 1), groups=728, bias=False)
          (pointwise): Conv2d(728, 728, kernel_size=(1, 1), stride=(1, 1), bias=False)
        )
        (5): SynchronizedBatchNorm2d(728, eps=1e-05, momentum=0.1, affine=True, track_running_stats=True)
        (6): ReLU(inplace=True)
        (7): SeparableConv2d_same(
          (conv1): Conv2d(728, 728, kernel_size=(3, 3), stride=(1, 1), groups=728, bias=False)
          (pointwise): Conv2d(728, 728, kernel_size=(1, 1), stride=(1, 1), bias=False)
        )
        (8): SynchronizedBatchNorm2d(728, eps=1e-05, momentum=0.1, affine=True, track_running_stats=True)
      )
    )
    (block17): Block(
      (relu): ReLU(inplace=True)
      (rep): Sequential(
        (0): ReLU(inplace=True)
        (1): SeparableConv2d_same(
          (conv1): Conv2d(728, 728, kernel_size=(3, 3), stride=(1, 1), groups=728, bias=False)
          (pointwise): Conv2d(728, 728, kernel_size=(1, 1), stride=(1, 1), bias=False)
        )
        (2): SynchronizedBatchNorm2d(728, eps=1e-05, momentum=0.1, affine=True, track_running_stats=True)
        (3): ReLU(inplace=True)
        (4): SeparableConv2d_same(
          (conv1): Conv2d(728, 728, kernel_size=(3, 3), stride=(1, 1), groups=728, bias=False)
          (pointwise): Conv2d(728, 728, kernel_size=(1, 1), stride=(1, 1), bias=False)
        )
        (5): SynchronizedBatchNorm2d(728, eps=1e-05, momentum=0.1, affine=True, track_running_stats=True)
        (6): ReLU(inplace=True)
        (7): SeparableConv2d_same(
          (conv1): Conv2d(728, 728, kernel_size=(3, 3), stride=(1, 1), groups=728, bias=False)
          (pointwise): Conv2d(728, 728, kernel_size=(1, 1), stride=(1, 1), bias=False)
        )
        (8): SynchronizedBatchNorm2d(728, eps=1e-05, momentum=0.1, affine=True, track_running_stats=True)
      )
    )
    (block18): Block(
      (relu): ReLU(inplace=True)
      (rep): Sequential(
        (0): ReLU(inplace=True)
        (1): SeparableConv2d_same(
          (conv1): Conv2d(728, 728, kernel_size=(3, 3), stride=(1, 1), groups=728, bias=False)
          (pointwise): Conv2d(728, 728, kernel_size=(1, 1), stride=(1, 1), bias=False)
        )
        (2): SynchronizedBatchNorm2d(728, eps=1e-05, momentum=0.1, affine=True, track_running_stats=True)
        (3): ReLU(inplace=True)
        (4): SeparableConv2d_same(
          (conv1): Conv2d(728, 728, kernel_size=(3, 3), stride=(1, 1), groups=728, bias=False)
          (pointwise): Conv2d(728, 728, kernel_size=(1, 1), stride=(1, 1), bias=False)
        )
        (5): SynchronizedBatchNorm2d(728, eps=1e-05, momentum=0.1, affine=True, track_running_stats=True)
        (6): ReLU(inplace=True)
        (7): SeparableConv2d_same(
          (conv1): Conv2d(728, 728, kernel_size=(3, 3), stride=(1, 1), groups=728, bias=False)
          (pointwise): Conv2d(728, 728, kernel_size=(1, 1), stride=(1, 1), bias=False)
        )
        (8): SynchronizedBatchNorm2d(728, eps=1e-05, momentum=0.1, affine=True, track_running_stats=True)
      )
    )
    (block19): Block(
      (relu): ReLU(inplace=True)
      (rep): Sequential(
        (0): ReLU(inplace=True)
        (1): SeparableConv2d_same(
          (conv1): Conv2d(728, 728, kernel_size=(3, 3), stride=(1, 1), groups=728, bias=False)
          (pointwise): Conv2d(728, 728, kernel_size=(1, 1), stride=(1, 1), bias=False)
        )
        (2): SynchronizedBatchNorm2d(728, eps=1e-05, momentum=0.1, affine=True, track_running_stats=True)
        (3): ReLU(inplace=True)
        (4): SeparableConv2d_same(
          (conv1): Conv2d(728, 728, kernel_size=(3, 3), stride=(1, 1), groups=728, bias=False)
          (pointwise): Conv2d(728, 728, kernel_size=(1, 1), stride=(1, 1), bias=False)
        )
        (5): SynchronizedBatchNorm2d(728, eps=1e-05, momentum=0.1, affine=True, track_running_stats=True)
        (6): ReLU(inplace=True)
        (7): SeparableConv2d_same(
          (conv1): Conv2d(728, 728, kernel_size=(3, 3), stride=(1, 1), groups=728, bias=False)
          (pointwise): Conv2d(728, 728, kernel_size=(1, 1), stride=(1, 1), bias=False)
        )
        (8): SynchronizedBatchNorm2d(728, eps=1e-05, momentum=0.1, affine=True, track_running_stats=True)
      )
    )
    (block20): Block(
      (skip): Conv2d(728, 1024, kernel_size=(1, 1), stride=(1, 1), bias=False)
      (skipbn): SynchronizedBatchNorm2d(1024, eps=1e-05, momentum=0.1, affine=True, track_running_stats=True)
      (relu): ReLU(inplace=True)
      (rep): Sequential(
        (0): ReLU(inplace=True)
        (1): SeparableConv2d_same(
          (conv1): Conv2d(728, 728, kernel_size=(3, 3), stride=(1, 1), groups=728, bias=False)
          (pointwise): Conv2d(728, 728, kernel_size=(1, 1), stride=(1, 1), bias=False)
        )
        (2): SynchronizedBatchNorm2d(728, eps=1e-05, momentum=0.1, affine=True, track_running_stats=True)
        (3): ReLU(inplace=True)
        (4): SeparableConv2d_same(
          (conv1): Conv2d(728, 728, kernel_size=(3, 3), stride=(1, 1), groups=728, bias=False)
          (pointwise): Conv2d(728, 1024, kernel_size=(1, 1), stride=(1, 1), bias=False)
        )
        (5): SynchronizedBatchNorm2d(1024, eps=1e-05, momentum=0.1, affine=True, track_running_stats=True)
        (6): SeparableConv2d_same(
          (conv1): Conv2d(1024, 1024, kernel_size=(3, 3), stride=(1, 1), groups=1024, bias=False)
          (pointwise): Conv2d(1024, 1024, kernel_size=(1, 1), stride=(1, 1), bias=False)
        )
      )
    )
    (conv3): SeparableConv2d_same(
      (conv1): Conv2d(1024, 1024, kernel_size=(3, 3), stride=(1, 1), dilation=(2, 2), groups=1024, bias=False)
      (pointwise): Conv2d(1024, 1536, kernel_size=(1, 1), stride=(1, 1), bias=False)
    )
    (bn3): SynchronizedBatchNorm2d(1536, eps=1e-05, momentum=0.1, affine=True, track_running_stats=True)
    (conv4): SeparableConv2d_same(
      (conv1): Conv2d(1536, 1536, kernel_size=(3, 3), stride=(1, 1), dilation=(2, 2), groups=1536, bias=False)
      (pointwise): Conv2d(1536, 1536, kernel_size=(1, 1), stride=(1, 1), bias=False)
    )
    (bn4): SynchronizedBatchNorm2d(1536, eps=1e-05, momentum=0.1, affine=True, track_running_stats=True)
    (conv5): SeparableConv2d_same(
      (conv1): Conv2d(1536, 1536, kernel_size=(3, 3), stride=(1, 1), dilation=(2, 2), groups=1536, bias=False)
      (pointwise): Conv2d(1536, 2048, kernel_size=(1, 1), stride=(1, 1), bias=False)
    )
    (bn5): SynchronizedBatchNorm2d(2048, eps=1e-05, momentum=0.1, affine=True, track_running_stats=True)
  )
  (context_modules): MultiAspectGCAttention(
    (conv_mask): Conv2d(64, 1, kernel_size=(1, 1), stride=(1, 1))
    (sigmoid): Sigmoid()
    (channel_add_conv): Sequential(
      (0): Conv2d(256, 16, kernel_size=(1, 1), stride=(1, 1))
      (1): LayerNorm((16, 1, 1), eps=1e-05, elementwise_affine=True)
      (2): ReLU(inplace=True)
      (3): Conv2d(16, 256, kernel_size=(1, 1), stride=(1, 1))
    )
  )
  (aspp1): ASPP_module(
    (atrous_convolution): Conv2d(2048, 256, kernel_size=(1, 1), stride=(1, 1), bias=False)
    (bn): SynchronizedBatchNorm2d(256, eps=1e-05, momentum=0.1, affine=True, track_running_stats=True)
    (relu): ReLU()
  )
  (aspp2): ASPP_module(
    (atrous_convolution): Conv2d(2048, 256, kernel_size=(3, 3), stride=(1, 1), padding=(6, 6), dilation=(6, 6), bias=False)
    (bn): SynchronizedBatchNorm2d(256, eps=1e-05, momentum=0.1, affine=True, track_running_stats=True)
    (relu): ReLU()
  )
  (aspp3): ASPP_module(
    (atrous_convolution): Conv2d(2048, 256, kernel_size=(3, 3), stride=(1, 1), padding=(12, 12), dilation=(12, 12), bias=False)
    (bn): SynchronizedBatchNorm2d(256, eps=1e-05, momentum=0.1, affine=True, track_running_stats=True)
    (relu): ReLU()
  )
  (aspp4): ASPP_module(
    (atrous_convolution): Conv2d(2048, 256, kernel_size=(3, 3), stride=(1, 1), padding=(18, 18), dilation=(18, 18), bias=False)
    (bn): SynchronizedBatchNorm2d(256, eps=1e-05, momentum=0.1, affine=True, track_running_stats=True)
    (relu): ReLU()
  )
  (relu): ReLU()
  (vae_relu): ReLU()
  (global_avg_pool): Sequential(
    (0): AdaptiveAvgPool2d(output_size=(1, 1))
    (1): Conv2d(2048, 256, kernel_size=(1, 1), stride=(1, 1), bias=False)
    (2): SynchronizedBatchNorm2d(256, eps=1e-05, momentum=0.1, affine=True, track_running_stats=True)
    (3): ReLU()
  )
  (conv1): Conv2d(1280, 256, kernel_size=(1, 1), stride=(1, 1), bias=False)
  (bn1): SynchronizedBatchNorm2d(256, eps=1e-05, momentum=0.1, affine=True, track_running_stats=True)
  (conv2): Conv2d(128, 48, kernel_size=(1, 1), stride=(1, 1), bias=False)
  (bn2): SynchronizedBatchNorm2d(48, eps=1e-05, momentum=0.1, affine=True, track_running_stats=True)
  (last_conv): Sequential(
    (0): Conv2d(304, 256, kernel_size=(3, 3), stride=(1, 1), padding=(1, 1), bias=False)
    (1): SynchronizedBatchNorm2d(256, eps=1e-05, momentum=0.1, affine=True, track_running_stats=True)
    (2): ReLU()
    (3): Conv2d(256, 256, kernel_size=(3, 3), stride=(1, 1), padding=(1, 1), bias=False)
    (4): SynchronizedBatchNorm2d(256, eps=1e-05, momentum=0.1, affine=True, track_running_stats=True)
    (5): ReLU()
    (6): Conv2d(256, 1, kernel_size=(1, 1), stride=(1, 1))
  )
  (fc_e0): Linear(in_features=256, out_features=256, bias=True)
  (fc_e1): Linear(in_features=256, out_features=128, bias=True)
  (fc_mean): Linear(in_features=128, out_features=256, bias=True)
  (fc_var): Linear(in_features=128, out_features=256, bias=True)
  (fc_d0): Linear(in_features=256, out_features=128, bias=True)
  (fc_d1): Linear(in_features=128, out_features=256, bias=True)
  (fc_logits): Linear(in_features=256, out_features=256, bias=True)
)
Training model named:
  panodepth
Models and tensorboard events files are saved to:
 Logs/3d60_deeplab_sitanfu
Training is using:
  cuda
  0%|          | 0/44 [00:00<?, ?it/s]Training Epoch_0:   0%|          | 0/44 [00:00<?, ?it/s]Training Epoch_0:   2%|▏         | 1/44 [00:13<09:46, 13.65s/it]Training Epoch_0:   5%|▍         | 2/44 [00:26<09:10,
…
